params/synthetic_noise.pth (torch, 1997 bytes, 3 tensors)

mean f8 [17, 2]
000000 f5 f7 35 fe 0f a6 4a 3f b2 71 5b da d1 d6 2b 3f
       0.0008132532206415176 0.0002123957794343385
000010 24 38 15 23 06 6d 23 bf b0 19 05 c3 46 5d 60 3f
       -0.00014820766367979008 0.001997602659830032
000020 11 d6 db 69 b9 b3 60 3f 3a bb 6c 2c bf bd 58 bf
       0.002038824210894637 -0.0015100829056781799
000030 16 0a ed fa 90 ed 4e 3f 8b a8 c1 8e f5 c3 4d 3f
       0.0009438474570305246 0.0009083699237753135
000040 3b 2b 26 5d 3a 97 5e 3f 7d f8 2d a4 17 0f 47 bf
       0.001867110248528105 -0.0007037034450687731
000050 34 de a4 b9 ea aa 5f 3f b9 1a f7 9e f6 50 75 bf
       0.0019328396070487199 -0.005204165804974786
000060 1e 60 65 ff 23 4d 4d 3f 89 5a 02 ee c6 aa 5e bf
       0.0008942056436280798 -0.001871771113689443
000070 d7 a3 bc 4b 21 37 64 3f d2 6f ad 14 94 1e 63 3f
       0.002467694312049389 0.0023339168741767025
000080 6f 4d f1 06 78 8a 61 3f ea 08 53 49 90 a8 7a bf
       0.0021412224082639135 -0.006508411043969023
000090 80 c5 5a 21 73 21 5b 3f 6b 8a 27 27 07 1e 5b 3f
       0.0016559242552996734 0.0016551084378241497
0000a0 0b 17 d5 7c cb 6c 4b 3f c8 e8 3a 2c 41 19 5a 3f
       0.0008369439689565895 0.0015929352238531081
0000b0 a3 eb 0d 35 03 04 4a 3f f7 0f 36 4b 6c ee 72 bf
       0.0007939353618974142 -0.004621909163123653
0000c0 16 3f d9 19 bf 90 58 3f ba 47 74 ea 57 66 33 3f
       0.0014993540020391042 0.00029601713545545814
0000d0 2a 94 1e b0 f6 fd 52 3f 3d 84 bb e5 90 b4 5a 3f
       0.0011591824590848712 0.0016299643529509432
0000e0 c9 d9 6a 3a 08 3c 61 3f c1 e1 90 2b b1 ef 69 bf
       0.002103820868195803 -0.003166051898485928
0000f0 f8 a3 cf c7 ec 8f 5b 3f 3f 4b 65 2e 89 a0 35 bf
       0.0016822635945976643 -0.0003300032534713677
000100 cd e1 2a 76 d2 42 5b 3f d3 50 13 7c 0f 96 55 3f
       0.001663880852602262 0.0013175154893377186

std f8 [17, 2]
000000 ee cf e0 87 17 01 6e 3f 9b 43 19 22 4c 44 6d 3f
       0.003662630041640461 0.0035726057983897614
000010 0e fb 98 c8 83 39 7d 3f d5 71 69 d2 5e ed 74 3f
       0.0071349284931432454 0.005109186552172369
000020 a4 28 70 c7 fa eb 78 3f 7b 05 f0 e5 78 7e 74 3f
       0.006084422689136702 0.005003425844735228
000030 40 34 a9 90 f6 55 82 3f d8 be 0c 9d 4b ae 75 3f
       0.00895302418680377 0.00529317413820226
000040 98 06 6e 87 d7 82 7b 3f 35 3e 63 88 86 d2 75 3f
       0.006716577444309778 0.005327725905047089
000050 23 66 10 6e 95 b9 7c 3f 2f 62 15 91 48 28 74 3f
       0.007012923918432476 0.00492122980480096
000060 6c 4b 87 78 c7 77 83 3f c2 51 d3 85 a0 0a 77 3f
       0.009505804410684347 0.005625369112028657
000070 33 f5 d4 64 5a fc 7a 3f c7 e2 75 a5 fa 58 74 3f
       0.006588318921158009 0.004967669570185413
000080 04 fd fb 1a 2d 7e 76 3f 30 93 f2 69 0a bb 75 3f
       0.005491424744604293 0.005305329016810842
000090 b3 e1 a1 99 2b de 75 3f fe 3a aa 9e 87 f9 73 3f
       0.005338831246369957 0.004876642002854535
0000a0 aa 22 93 c8 a9 fc 6b 3f d6 20 ae 39 c3 9b 6c 3f
       0.00341637764777077 0.0034922421450041914
0000b0 49 79 13 fa c5 65 80 3f 20 ce 7c 80 e5 ee 78 3f
       0.008006617254463182 0.006087204448522537
0000c0 53 53 4b 78 b2 2a 75 3f 1a f8 ce cf 86 78 73 3f
       0.005167672298473774 0.00475361500588003
0000d0 0e f2 bd 5a d1 70 74 3f 4e 41 84 2f 3e d8 74 3f
       0.004990403929579402 0.005089037811800102
0000e0 36 79 b7 4b be 05 80 3f 71 e6 97 2d d7 3f 80 3f
       0.007823454557123282 0.007934266165636946
0000f0 5a 63 02 d2 fb 9c 78 3f ac f9 80 b6 34 6f 77 3f
       0.006009086297262234 0.005721288594996581
000100 c6 f0 b0 d8 2a ff 75 3f 2e e7 54 5d 2e 48 77 3f
       0.005370299691147723 0.005684071647289275

weight f8 [17]
000000 11 3c 1c f7 b8 f5 ef 3f 6f b5 77 25 4a f1 ee 3f
       0.9987454248783952 0.9669543010510732
000010 e4 78 01 d3 a8 77 ec 3f a1 ba 96 8c 4c 9a ec 3f
       0.8896068688589165 0.8938353296160423
000020 83 7b a0 b7 16 30 ef 3f cb 33 ba 66 b4 0d ec 3f
       0.9746202074492064 0.876672936095582
000030 6c 2d 7f e8 ae 45 ea 3f 50 21 0e ad 5b a6 ee 3f
       0.8210062542870395 0.9578073863968175
000040 93 c9 74 5f d5 62 ed 3f a6 00 9a f8 5d f9 ee 3f
       0.9183146347407266 0.9679403167247258
000050 b0 1d f0 d4 e8 7d ef 3f d9 6a dd 19 04 83 ec 3f
       0.9841198119110484 0.890993166463285
000060 4d 49 7f 22 59 a6 e9 3f 53 65 2d fe 17 7d e6 3f
       0.8015561746381451 0.7027702297593045
000070 1e 33 ff 06 4c 30 ec 3f cc 00 de e1 5b 63 ea 3f
       0.8808956276567164 0.8246287738293403
000080 7d a7 e2 81 e6 51 e7 3f
       0.7287476097892377
